grasp_mobilenet.pt (torch, 395493 bytes, 95 tensors)

backbone1.0.0.weight f4 [16, 3, 3, 3]
0.88684416 1.1633716 1.0106616 0.95599097 1.2106888 0.9574123 0.06089552 0.14282997
0.0064546326 -0.7835456 -0.9795964 -0.86254644 -0.80962527 -1.0102468 -0.7957372 -0.061658446
-0.1338544 -0.042341936 -0.054874387 -0.07343763 -0.07338013 -0.06663497 -0.09008218 -0.077627994
-0.021727111 -0.023306856 0.00127147 -0.011973553 0.00080068834 0.01042448 0.3929601 0.73642504
0.4205487 -0.37415093 -0.70777315 -0.394505 0.027965069 0.03090011 0.01798587 0.8062282
1.6644763 0.9088599 -0.78969467 -1.6917567 -0.93375164 0.027623087 0.04584344 0.027881991
0.17355028 0.28849494 0.15232901 -0.14790277 -0.2873219 -0.169496 0.22685996 0.4969058
0.35834965 0.57506377 0.8810835 0.62230766 0.25462455 0.5556213 0.43403223 -0.6518815
-1.3651676 -0.9298245 -1.2231685 -2.1053212 -1.6840761 -0.7199228 -1.3937304 -0.96933025
0.48787948 0.89061445 0.6685871 0.79973966 1.2443478 0.9905348 0.4137478 0.85318893
0.67873335 0.024704626 0.3542542 -0.47573337 -0.13005602 0.32135954 0.20700994 0.35390064
-0.43079942 0.16484012 -0.33824405 0.12897404 0.18163908 -0.13151763 -0.208787 0.033215556
2.3386774 -0.10383799 -0.21998022 -0.040811867 -0.13427462 0.03383601 0.23966703 0.06180949
-0.08787547 0.11194737 0.1630446 -0.071856596 -0.2820605 0.39426494 -0.14294171 -0.46246716
0.6771246 -0.22061124 -0.24162883 0.3609368 -0.12773873 -0.6311607 0.9185236 -0.3146642
-0.9977631 1.5022705 -0.4541995 -0.44708252 0.71463704 -0.22594409 -0.12984459 0.20081829
-0.077291556 -0.20555955 0.33136505 -0.12729229 -0.100494646 0.15835337 -0.060441133 -0.43005782
0.33533135 0.12391169 -0.7839832 0.6051231 0.18895665 -0.43275577 0.32421365 0.10237994
-0.95107573 0.75025976 0.3196626 -1.7164352 1.2512066 0.42200655 -0.8545993 0.64568317
0.17093033 -0.2044114 0.16260095 0.056069657 -0.3092763 0.2848528 0.054168917 -0.16110322
0.14508836 0.023323257 0.12391046 0.08515665 0.14515471 -0.15730976 -0.18171078 -0.19913763
-0.25707427 -0.30272025 -0.3305281 0.1733244 0.107160255 0.15219255 -0.38460532 -0.56436753
-0.5291116 -0.51821667 -0.7395829 -0.7036927 0.02708054 0.023672968 0.052331463 -0.08164857
-0.08828546 -0.07421252 -0.06515348 -0.1086311 -0.05685603 0.24974085 0.4326773 0.16291617
-0.012250751 -0.11974299 -0.10393441 -0.28257012 -0.7307964 -0.4591104 0.53407055 0.8146896
0.28073668 -0.08310855 -0.3407397 -0.2815739 -0.5702831 -1.3453624 -0.7786131 0.17996508
0.20107998 0.055780146 -0.03645353 -0.090467826 -0.0532397 -0.17426103 -0.35511455 -0.1826315
-0.023941897 -0.32577556 0.32306632 -0.05108751 -0.5759883 0.5873583 0.011181006 -0.32093918
0.41211343 -0.021107316 -0.753089 0.78038144 -0.04658875 -1.3411249 1.3229609 0.06721356
-0.7024096 0.7872931 -0.022039901 -0.15270211 0.16223907 -0.008328844 -0.25758192 0.25290284
0.0051792394 -0.13069525 0.15172537 -0.09132881 -0.10008754 -0.1037909 -0.079739526 -0.09616666
-0.090588935 -0.01650784 -0.017422812 -0.016733568 -0.7933324 -0.98160213 -0.8294418 -0.78458333
00000000: 3808 633f 5ce9 943f 5c5d 813f d3bb 743f
00000010: daf7 9a3f f918 753f 956d 793d 0542 123e
00000020: 6281 d33b 7296 48bf d4c6 7abf d8cf 5cbf
00000030: 9a43 4fbf c44f 81bf 6fb5 4bbf 918d 7cbd
00000040: 2111 09be bd6e 2dbd f7c3 60bd 7866 96bd
00000050: 5248 96bd ea77 88bd 027d b8bd 6dfb 9ebd
00000060: 0efd b1bc 05ee bebc 74a7 a63a b92c 44bc
00000070: 49e5 513a 70cb 2a3c 1132 c93e 5a86 3c3f
00000080: 2952 d73e b690 bfbe 9f30 35bf 8ffc c9be
00000090: 0017 e53c 3a22 fd3c 1a57 933c f964 4e3f
000000a0: 8f0d d53f 0bab 683f 6e29 4abf 7c8b d8bf
000000b0: 590a 6fbf d049 e23c 55c6 3b3d c668 e43c
000000c0: 2ab7 313e 9cb5 933e 23fc 1b3e d373 17be
000000d0: db1b 93be 5c90 2dbe fa4d 683e 706a fe3e
000000e0: 9b79 b73e 6137 133f b08e 613f 8e4f 1f3f
000000f0: 265e 823e 333d 0e3f 7939 de3e b5e1 26bf
00000100: d0bd aebf fa08 6ebf c990 9cbf 95bd 06c0
00000110: ce8f d7bf dc4c 38bf c265 b2bf 0726 78bf
00000120: 57cb f93e 4fff 633f 8628 2b3f bdbb 4c3f
00000130: ca46 9f3f b093 7d3f c0d6 d33e 976a 5a3f
00000140: 78c1 2d3f 5b61 ca3c ce60 b53e 5393 f3be
00000150: 682d 05be 3d89 a43e 6afa 533e 7732 b53e
00000160: be91 dcbe d9cb 283e 532e adbe c511 043e
00000170: 98ff 393e 8fac 06be 42cc 55be 090d 083d
00000180: e4ac 1540 03a9 d4bd 7f42 61be 582a 27bd
00000190: 497f 09be a197 0a3d 466b 753e f32b 7d3d
000001a0: 0ef8 b3bd aa44 e53d 2af5 263e 8d29 93bd
000001b0: 3c6a 90be 18dd c93e 505f 12be 7fc8 ecbe
000001c0: 0a58 2d3f eae7 61be 8c6d 77be b5cc b83e
000001d0: f1cd 02be bf93 21bf 5d24 6b3f ab1b a1be
000001e0: 676d 7fbf 664a c03f d68c e8be 00e8 e4be
000001f0: 74f2 363f e35d 67be fbf5 04be 4fa3 4d3e
00000200: 094b 9ebd 347e 52be aea8 a93e e958 02be
00000210: 23d0 cdbd 6327 223e 1f91 77bd 8a30 dcbe
00000220: 8db0 ab3e 6ac5 fd3d 1fb3 48bf 59e9 1a3f
00000230: da7d 413e 2a92 ddbe 55ff a53e 93ac d13d
00000240: b379 73bf 0611 403f d1aa a33e 26b4 dbbf
00000250: 8a27 a03f 3e11 d83e 05c7 5abf 7e4b 253f
00000260: 5c08 2f3e 3951 51be dd80 263e 4ca9 653d
00000270: 7759 9ebe 3ad8 913e 3ae0 5d3d 3ef8 24be
00000280: 0b92 143e 6a10 bf3c c4c4 fd3d 9c66 ae3d
00000290: 70a3 143e cf15 21be 6412 3abe bcea 4bbe
000002a0: 3d9f 83be 26fe 9abe fb3a a9be f47b 313e
000002b0: d676 db3d 5dd8 1b3e fdea c4be 647a 10bf
000002c0: dc73 07bf d9a9 04bf 4e55 3dbf 3425 34bf
000002d0: 02d8 dd3c d0ed c13c 8459 563d 5e37 a7bd
000002e0: 02cf b4bd bcfc 97bd 306f 85bd fb79 debd
000002f0: dee1 68bd 11bc 7f3e e187 dd3e 7fd3 263e
00000300: 60b7 48bc d03b f5bd 90db d4bd 08ad 90be
00000310: 7915 3bbf 8510 ebbe d9b8 083f 7f8f 503f
00000320: b8bc 8f3e d134 aabd 6f75 aebe 742a 90be
00000330: 13fe 11bf d634 acbf 3053 47bf c448 383e
00000340: e9e7 4d3e b979 643d 4c50 15bd 3247 b9bd
00000350: df11 5abd 7c71 32be 93d1 b5be c003 3bbe
00000360: cc21 c4bc 0ecc a6be f368 a53e 2341 51bd
00000370: f873 13bf 1d5d 163f 8a30 373c 2452 a4be
00000380: 8800 d33e 40e9 acbc 71ca 40bf 14c7 473f
00000390: d8d3 3ebd fba9 abbf c856 a93f 43a7 893d
000003a0: 1ed1 33bf 0a8c 493f 068d b4bc f15d 1cbe
000003b0: 0022 263e b475 08bc c7e1 83be 7b7c 813e
000003c0: 9cb6 a93b fad4 05be e55d 1b3e 990a bbbd
000003d0: b2fa ccbd 5390 d4bd 7a4e a3bd 07f3 c4bd
000003e0: b186 b9bd 733b 87bc 49ba 8ebc d614 89bc
000003f0: d517 4bbf 474a 7bbf 4c56 54bf 74da 48bf

backbone1.0.1.weight f4 [16]
0.36158073 1.2596668 0.48583454 1.9826628 0.35303473 0.65232754 0.1264499 0.06528615
0.45925838 0.551682 0.5447824 8.746432 0.107264124 0.07331737 0.073612265 2.8909323
00000000: 1c21 b93e c33c a13f 4ebf f83e e5c7 fd3f
00000010: f8c0 b43e f0fe 263f 157c 013e bfb4 853d
00000020: ea23 eb3e 083b 0d3f dc76 0b3f 63f1 0b41
00000030: 4bad db3d 6b27 963d 07c2 963d 0905 3940

backbone1.0.1.bias f4 [16]
4.5188355 2.5244195 2.817407 -2.6073177 2.755838 2.728682 0.23268764 -0.022648012
2.688286 2.684827 2.6806223 -0.9188575 0.33854085 0.49744406 1.1150104 -2.5146089
00000000: 4d9a 9040 1790 2140 6550 3440 4bde 26c0
00000010: a65f 3040 baa2 2e40 ab45 6e3e 5388 b9bc
00000020: e10c 2c40 35d4 2b40 518f 2b40 3f3a 6bbf
00000030: 3a55 ad3e fdb0 fe3e a9b8 8e3f 5aef 20c0

backbone1.0.1.running_mean f4 [16]
-0.08452934 0.07293338 0.3638836 0.96895504 0.076589994 0.1339378 -1.9665824 -1.457957
0.05698167 0.52003306 0.7079909 -0.024391113 -1.9025961 1.9117838 2.318106 -1.125261
00000000: b81d adbd 195e 953d f44e ba3e 700d 783f
00000010: 37db 9c3d fe26 093e f9b8 fbbf 569e babf
00000020: 9d65 693d e320 053f e43e 353f dfcf c7bc
00000030: 4588 f3bf 55b5 f43f d95b 1440 8d08 90bf

backbone1.0.1.running_var f4 [16]
6.7059608 1.3870956 10.636797 3.6594627 0.80007285 2.2876143 14.403245 10.026703
0.8919309 6.5178227 21.920979 3.4525778 13.827276 13.445134 20.173483 5.0906944
00000000: 3b97 d640 598c b13f 5230 2a41 a334 6a40
00000010: 93d1 4c3f 4668 1240 b173 6641 606d 2041
00000020: 9555 643f 0192 d040 2a5e af41 09f7 5c40
00000030: 863c 5d41 451f 5741 4b63 a141 f8e6 a240

backbone1.1.block.0.0.weight f4 [16, 1, 3, 3]
-0.25296915 0.101168774 0.15877217 2.5556905 0.36726058 -2.7460577 1.994249 0.2233132
-2.3574257 -0.18092221 -0.60457176 -0.28752846 0.5205524 1.248283 0.8355316 -0.25421128
-0.77339494 -0.44678214 -0.03049973 -0.036067758 0.055607583 -0.004544217 -0.74970216 -0.9350891
0.0070170183 -0.62456715 -0.76918817 -0.26555416 0.32763162 0.49906 -0.30654588 0.3725595
0.6483424 -0.0013719838 0.006676631 0.11524438 -0.040810473 0.17666553 -0.12509587 -0.18143708
1.3815515 -1.2007763 -0.18212982 1.03582 -0.8870628 -0.03906216 0.2961454 -0.20145084
0.117942736 1.1624262 -1.5476444 0.006102327 0.8358156 -1.0068674 2.134448 0.070182905
-2.2140613 4.1497355 0.028498402 -4.0133634 0.9058296 -0.021088509 -0.986766 -0.26009575
-0.5410228 -0.48126343 -0.3244594 -0.72960293 -0.47066495 0.23399282 0.5609529 0.13459615
-0.16609247 0.24633281 -0.08897544 -1.1801802 1.1103396 -0.03541062 -0.7814655 0.78741753
-0.12854575 0.19975445 -0.039575167 -0.14923774 -2.1951005 -0.4595134 2.5376995 -1.7972988
-0.31802613 2.208896 0.055000257 0.068290435 -0.023934683 0.20418873 0.87332886 0.8512368
-0.056610476 0.63439274 0.8584978 0.13690647 0.35707724 0.21136416 0.40976703 0.796813
0.41799065 0.25581098 0.47495475 0.26378974 0.027331287 3.2127793 2.709613 -0.19125679
0.395197 0.32337013 0.035172183 -3.3194168 -3.1264708 1.9351615 3.535155 0.6298688
0.5887771 0.48335263 -0.03375066 -2.528831 -3.8626895 -0.68249404 -0.19810067 0.021385228
0.18136263 3.9318178 0.20474258 -4.035478 3.5071514 0.077309206 -3.6656125 0.08875896
0.14354074 0.113774866 0.25549066 -0.33259863 -0.558889 0.23450962 -0.5192036 -0.8000769
00000000: 2c85 81be 9331 cf3d 2c95 223e 6f90 2340
00000010: 9409 bc3e 69bf 2fc0 8d43 ff3f 37ac 643e
00000020: 10e0 16c0 ac43 39be 37c5 1abf ee36 93be
00000030: ec42 053f bdc7 9f3f 66e5 553f fb27 82be
00000040: 36fd 45bf a1c0 e4be 92da f9bc c9bb 13bd
00000050: c7c4 633d a8e7 94bb 7bec 3fbf 0062 6fbf
00000060: 04ef e53b a2e3 1fbf 84e9 44bf b7f6 87be
00000070: 55bf a73e cb84 ff3e 95f3 9cbe 1ec0 be3e
00000080: c4f9 253f 23d4 b3ba a4c7 da3b 3f05 ec3d
00000090: e228 27bd cfe7 343e 2219 00be a4ca 39be
000000a0: aed6 b03f 0ab3 99bf 3d80 3abe c095 843f
000000b0: 8c16 63bf a5ff 1fbd 5fa0 973e 2149 4ebe
000000c0: f68b f13d 62ca 943f 3619 c6bf 07f6 c73b
000000d0: 03f8 553f 08e1 80bf cc9a 0840 0ebc 8f3d
000000e0: 2eb3 0dc0 a2ca 8440 7b75 e93c 796d 80c0
000000f0: 73e4 673f cfc1 acbc b29c 7cbf 452b 85be
00000100: 7880 0abf 2968 f6be 8b1f a6be 42c7 3abf
00000110: fffa f0be d09b 6f3e 9c9a 0f3f 93d3 093e
00000120: 2514 2abe ab3e 7c3e c138 b6bd 2510 97bf
00000130: 9c1f 8e3f ba0a 11bd 1f0e 48bf 3294 493f
00000140: 7fa1 03be 6e8c 4c3e 9219 22bd c7d1 18be
00000150: 877c 0cc0 5745 ebbe ab69 2240 e30d e6bf
00000160: 52d4 a2be 8d5e 0d40 f347 613d dbdb 8b3d
00000170: ab12 c4bc da16 513e 7b92 5f3f a8ea 593f
00000180: 63e0 67bd 9067 223f 83c6 5b3f 3631 0c3e
00000190: d4d2 b63e d96f 583e fccc d13e f0fb 4b3f
000001a0: df02 d63e a8f9 823e 452d f33e 730f 873e
000001b0: dde5 df3c 2d9e 4d40 4d6a 2d40 d2d8 43be
000001c0: 4357 ca3e c590 a53e b510 103d 5371 54c0
000001d0: 1918 48c0 5fb3 f73f fb3f 6240 153f 213f
000001e0: 19ba 163f ff79 f73e 223e 0abd 5ed8 21c0
000001f0: 4e36 77c0 eeb7 2ebf e7da 4abe 1330 af3c
00000200: 20b7 393e e7a2 7b40 0aa8 513e a322 81c0
00000210: 2b75 6040 4a54 9e3d 6599 6ac0 42c7 b53d
00000220: 58fc 123e cc02 e93d accf 823e 5e4a aabe
00000230: 5913 0fbf 4a23 703e 87ea 04bf d7d1 4cbf

backbone1.1.block.0.1.weight f4 [16]
1.669406 0.7003699 0.3014947 0.387039 1.5569696 0.4631218 1.5075033 0.46813425
0.6281687 0.8614434 0.29061723 0.64972705 1.2580633 1.5891858 2.514746 0.24717668
00000000: 19af d53f 714b 333f 835d 9a3e fa29 c63e
00000010: c84a c73f 4d1e ed3e def5 c03f 4baf ef3e
00000020: aacf 203f 8e87 5c3f c8cb 943e 8354 263f
00000030: 3808 a13f 716a cb3f 99f1 2040 e21b 7d3e

backbone1.1.block.0.1.bias f4 [16]
0.2702072 1.8047118 1.763356 0.2076486 0.006366032 2.833471 0.03944524 0.80906284
1.7160977 0.4158052 1.4281632 0.48430118 0.22455935 0.08911013 -0.21989213 1.5888718
00000000: 9958 8a3e cc00 e73f a6b5 e13f d6a1 543e
00000010: 269a d03b 9757 3540 5591 213d be1e 4f3f
00000020: 17a9 db3f 6be4 d43e 0dce b63f 53f6 f73e
00000030: e3f2 653e 5f7f b63d 672b 61be 2760 cb3f

backbone1.1.block.0.1.running_mean f4 [16]
-0.60307467 0.18569596 -8.452084 -0.22615314 0.12509452 -0.7120983 -0.030122366 0.026031941
-0.32360724 0.2869514 8.835409 2.9244096 -0.025077889 -0.06766633 -0.21280378 -0.48736784
00000000: 1a63 1abf 1527 3e3e bc3b 07c1 b094 67be
00000010: c718 003e 134c 36bf 2ec3 f6bc f040 d53c
00000020: d9af a5be 4beb 923e d65d 0d41 8729 3b40
00000030: 2570 cdbc a594 8abd 3ce9 59be 4788 f9be

backbone1.1.block.0.1.running_var f4 [16]
15.175011 7.6667943 2.218022 0.0735496 2.1251805 4.4864664 0.090875484 0.0038393298
2.6586363 5.2147512 3.4584455 83.39995 0.10504186 0.17378019 1.2214938 2.3092153
00000000: d8cc 7241 6156 f540 13f4 0d40 2ca1 963d
00000010: f502 0840 2291 8f40 ed1c ba3d 449d 7b3b
00000020: 1927 2a40 3edf a640 2c57 5d40 c6cc a642
00000030: 3020 d73d 6ff3 313e e959 9c3f 2fca 1340

backbone1.1.block.1.fc1.weight f4 [8, 16, 1, 1]
-9.1104085e-10 -5.0073656e-09 6.044889e-10 -1.1129101e-09 -9.785151e-09 -1.6316052e-09 -4.8289714e-09 -9.736089e-10
7.2023574e-09 -4.04151e-09 -2.2186428e-09 -1.576577e-09 -3.1361622e-09 -3.1981624e-09 -2.9109248e-09 2.868177e-09
-1.5328524e-09 -2.1661013e-09 -1.1316003e-09 -4.6584803e-09 -6.863313e-09 -3.3490901e-09 -3.5771526e-09 -3.4321712e-09
2.5301354e-09 -4.9609056e-10 -5.506124e-10 3.409421e-09 -4.5123674e-09 -3.8517762e-09 4.633266e-09 -1.9155662e-09
-0.0013498053 -0.00073884235 -0.0018248715 -0.000481559 -0.00062477385 -0.000573487 -0.00075177074 -0.0018046262
-0.0006814034 -0.0010353792 -0.0028323282 0.0008891616 -0.00021382917 -0.00041644007 -0.0011398279 -0.0012402666
-2.249718e-09 -2.655382e-09 3.9481027e-09 3.521998e-09 -4.2908774e-09 -2.94302e-09 -2.1729305e-09 -1.99728e-09
-5.832124e-09 1.305749e-09 -1.4219013e-09 -2.3800253e-09 -2.1489115e-09 -8.112477e-13 -3.3496885e-09 -2.051974e-09
-7.634176e-11 -6.3313235e-09 -1.544091e-09 -1.2097804e-09 -3.954766e-09 1.4788721e-09 4.0814363e-10 -4.3532364e-09
-8.7379244e-12 -1.5337506e-09 2.747025e-10 -5.134728e-09 -2.9660165e-09 -9.6476084e-11 1.6282348e-09 -3.112738e-10
-5.337045e-09 -1.5154248e-09 -1.1782046e-08 -1.7604629e-08 -1.2393848e-08 1.6433911e-09 -1.349124e-09 -2.816803e-10
1.1941407e-08 -8.177207e-09 -4.633641e-09 -6.6100685e-09 -7.516505e-09 -1.3466869e-08 -9.59769e-09 -8.833297e-09
-3.3317347e-09 -3.0180383e-09 5.960145e-09 2.1966582e-09 -2.9146368e-09 -2.0227466e-09 -5.1050257e-09 -1.068989e-09
-4.056314e-09 -3.238677e-10 -3.5819632e-09 -6.2810437e-09 -9.895937e-09 -2.9938054e-09 -3.2538572e-10 -2.9604899e-09
-1.1521775e-09 -5.6091474e-09 -1.4345293e-09 -3.0967744e-09 -5.389621e-09 -3.293148e-09 -3.5176546e-09 6.661297e-11
-1.4144779e-09 -3.967101e-09 -2.0890505e-09 -2.2978106e-09 3.876313e-09 -7.795967e-09 7.417997e-10 4.944533e-10
00000000: cd6c 7ab0 410d acb1 2029 2630 0bf5 98b0
00000010: 8d1b 28b2 013f e0b0 15ec a5b1 d1cf 85b0
00000020: 9b78 f731 7fdd 8ab1 c776 18b1 dfae d8b0
00000030: f383 57b1 abc6 5bb1 8809 48b1 8119 4531
00000040: 73ac d2b0 75da 14b1 a586 9bb0 6d10 a0b1
00000050: 57d2 ebb1 d125 66b1 efd1 75b1 65db 6bb1
00000060: 9dde 2d31 455d 08b0 e759 17b0 2b4b 6a31
00000070: 340b 9bb1 9558 84b1 a432 9f31 ffa2 03b1
00000080: f3eb b0ba dfae 41ba 8730 efba c179 fcb9
00000090: ddc7 23ba 1056 16ba 7b12 45ba 3589 ecba
000000a0: 35a0 32ba 90b5 87ba 959e 39bb a016 693a
000000b0: 5537 60b9 a455 dab9 4766 95ba 7190 a2ba
000000c0: 7599 1ab1 f979 36b1 e1a7 8731 a507 7231
000000d0: f56e 93b1 283e 4ab1 9952 15b1 8540 09b1
000000e0: e863 c8b1 f575 b330 b46c c3b0 d98d 23b1
000000f0: 0dac 13b1 8f58 64ab 5830 66b1 b502 0db1
00000100: 97e0 a7ae e98a d9b1 df37 d4b0 5d45 a6b0
00000110: 7de2 87b1 3041 cb30 1c61 e02f 7993 95b1
00000120: 1db8 19ad 0dcc d2b0 f104 972f 8c6d b0b1
00000130: b7d2 4bb1 3527 d4ae 6bc8 df30 e51f abaf
00000140: 2561 b7b1 4547 d0b0 fc69 4ab2 fd38 97b2
00000150: b8ec 54b2 afdd e130 156c b9b0 fada 9aaf
00000160: dd26 4d32 bd7b 0cb2 f035 9fb1 c71e e3b1
00000170: f021 01b2 eb5b 67b2 16e3 24b2 40c1 17b2
00000180: 7ff4 64b1 e465 4fb1 fdc9 cc31 05f4 1631
00000190: d54a 48b1 8900 0bb1 4868 afb1 b5eb 92b0
000001a0: b75f 8bb1 540c b2af 9026 76b1 a5d0 d7b1
000001b0: cb02 2ab2 95bb 4db1 f8e1 b2af 7d71 4bb1
000001c0: a45a 9eb0 95ba c0b1 0329 c5b0 08cf 54b1
000001d0: 9c2f b9b1 ac4d 62b1 3cbb 71b1 c57b 922e
000001e0: 8467 c2b0 fd4e 88b1 f78e 0fb1 83e7 1db1
000001f0: 6930 8531 07ef 05b2 83e7 4b30 0fea 0730

backbone1.1.block.1.fc1.bias f4 [8]
-1.7194443e-09 -2.3166298e-09 -0.00016355385 -1.8774664e-09 -1.2891413e-09 1.7532132e-08 -5.6570957e-09 9.6723e-11
00000000: 9151 ecb0 9532 1fb1 a77f 2bb9 bd04 01b1
00000010: a12d b1b0 9199 9632 5760 c2b1 35b2 d42e

backbone1.1.block.1.fc2.weight f4 [16, 8, 1, 1]
-6.153388e-10 2.9520104e-09 0.0021921985 2.421983e-10 -1.8752913e-09 1.6169766e-08 6.8457076e-09 3.4994443e-09
9.837855e-10 -7.6695733e-10 0.0015616043 9.2416624e-10 -6.2015126e-09 1.4836331e-08 3.7799013e-09 3.3348855e-09
-7.179717e-10 3.3494025e-09 0.0011123777 -2.2095052e-09 -1.9783828e-09 7.740726e-09 -4.033024e-09 3.1173901e-09
-2.8566571e-09 4.9383164e-09 0.0019283242 -6.5093353e-10 7.503514e-10 8.246819e-09 -5.0570775e-10 1.0328702e-09
-1.4445639e-09 1.4704145e-09 0.0024339024 1.8013564e-10 -5.2099375e-10 2.604286e-09 4.228293e-09 1.4812572e-09
-4.5824446e-09 -5.751792e-10 0.0004547235 -1.3382038e-09 7.21639e-10 1.3509457e-08 -7.298249e-10 -1.4727396e-09
6.0336447e-10 -4.5320356e-09 0.0022546006 -1.2672848e-09 2.0122946e-09 1.2444197e-08 1.9731765e-09 -1.5945002e-09
-2.1686845e-11 9.585645e-10 0.001997961 -2.8569938e-09 4.1351833e-09 1.6303678e-09 2.5035998e-09 -4.8417287e-10
-3.3286078e-09 -6.6419586e-10 0.0014316755 5.5134173e-09 4.8807364e-10 8.867471e-09 7.31023e-10 1.1021162e-09
-3.6578731e-09 3.067368e-09 0.0016734028 2.5420126e-09 -2.226181e-09 1.2269581e-08 -3.6760845e-09 2.9380722e-09
6.3109844e-11 -5.4618216e-11 0.00092703773 -1.7878244e-09 1.956283e-09 1.2522065e-08 -1.8237897e-09 -6.938574e-09
-7.581455e-10 2.2273656e-09 0.0010513939 5.256598e-10 -3.3224135e-09 1.1605451e-08 3.6393792e-09 -1.3168938e-09
4.0221906e-09 -1.0922713e-09 0.0021093602 6.525695e-10 9.895924e-10 5.6492233e-09 -3.961166e-10 -7.046583e-10
-7.245835e-10 5.086213e-09 0.0026774064 -3.5845142e-09 -5.526204e-10 1.31825395e-08 1.0959057e-09 -1.2994396e-09
1.120518e-09 3.1634386e-09 0.0021024665 2.4220974e-09 -1.362369e-09 1.2183695e-08 1.1532558e-09 -1.1236301e-09
-2.3182265e-09 -2.0153494e-09 0.001049463 -3.3637066e-09 -5.666006e-10 6.543342e-09 -1.990978e-09 -1.2867334e-09
00000000: 9e24 29b0 51dc 4a31 fdaa 0f3b 6126 852f
00000010: 79de 00b1 b1e5 8a32 7b37 eb31 e07a 7031
00000020: e035 8730 d3d1 52b0 bfae cc3a 6b08 7e30
00000030: 1515 d5b1 e0e2 7e32 5de0 8131 ed2b 6531
00000040: c45a 45b0 502b 6631 34cd 913a 07d6 17b1
00000050: 14f4 07b1 13fc 0432 db92 8ab1 b539 5631
00000060: d84e 44b1 e4ad a931 d3bf fc3a 60ed 32b0
00000070: 4941 4e30 e5ad 0d32 0502 0bb0 e4f4 8d30
00000080: 138a c6b0 9c17 ca30 1b82 1f3b ad0f 462f
00000090: ad35 0fb0 15f7 3231 7548 9131 1b95 cb30
000000a0: 9c73 9db1 a31a 1eb0 f467 ee39 dceb b7b0
000000b0: d55c 4630 3817 6832 dd9c 48b0 6b69 cab0
000000c0: 00da 2530 35b8 9bb1 ecc1 133b 9f2c aeb0
000000d0: a948 0a31 28ca 5532 7d98 0731 7d25 dbb0
000000e0: 6fc2 bead 7dbe 8330 39f0 023b c454 44b1
000000f0: 7515 8e31 7813 e030 cb0b 2c31 a316 05b0
00000100: 7dbd 64b1 a192 36b0 0fa7 bb3a 8870 bd31
00000110: 2129 0630 8d57 1832 2cf1 4830 4479 9730
00000120: fc5d 7bb1 b5c9 5231 1556 db3a 8faf 2e31
00000130: 64fb 18b1 30ca 5232 5d9e 7cb1 1de7 4931
00000140: afc7 8a2e a536 70ae 7304 733a 7bb7 f5b0
00000150: 4b6f 0631 a020 5732 e5a8 fab0 5868 eeb1
00000160: bf65 50b0 3b10 1931 edce 893a 057e 1030
00000170: 8450 64b1 5061 4732 a318 7a31 15fe b4b0
00000180: 9033 8a31 e11e 96b0 313d 0a3b 7f60 3330
00000190: 3002 8830 181b c231 75c4 d9af ebb1 41b0
000001a0: 082c 47b0 cdc2 ae31 6d77 2f3b 7153 76b1
000001b0: 34e7 17b0 6c79 6232 c19e 9630 f797 b2b0
000001c0: b900 9a30 cd63 5931 89c9 093b fd71 2631
000001d0: 193e bbb0 7550 5132 9580 9e30 386e 9ab0
000001e0: ac4e 1fb1 677e 0ab1 238e 893a f426 67b1
000001f0: f9be 1bb0 d8d3 e031 a8d1 08b1 e8d8 b0b0

backbone1.1.block.1.fc2.bias f4 [16]
0.5722962 0.652214 0.3817144 -1.1189152 -0.7253875 1.3602395 -0.3487057 -0.49276426
0.56758296 -0.3445245 0.62726617 -0.23970732 -0.44688782 -0.10959757 0.16125348 -0.3646639
00000000: 0182 123f 7ff7 263f 1270 c33e 9d38 8fbf
00000010: ffb2 39bf 541c ae3f 8e89 b2be 994b fcbe
00000020: 1e4d 113f 8465 b0be 8494 203f d675 75be
00000030: 7bce e4be b174 e0bd a21f 253e 3ab5 babe

backbone1.1.block.2.0.weight f4 [16, 16, 1, 1]
-2.1490216 0.1605775 -0.002873101 -0.3332735 -0.33761886 -0.66626173 -0.032504145 0.1841274
-0.18177713 0.25089157 0.023470635 -0.42488602 0.44161093 0.2820242 -0.05093409 -0.12014388
0.78211796 2.1471524 -0.08049251 -0.34353969 -0.7908023 0.5428738 1.2051032 0.120951205
-0.03409589 -0.18043387 0.011546482 -0.5006876 1.2512931 -0.20146793 -0.066423014 0.49774536
0.047983587 -0.02173769 -0.1480504 -0.027133286 0.022688204 -0.04534354 -0.011264557 0.017708365
0.028629366 -0.053581644 4.058995 -0.015780117 -0.0019060599 -0.025505392 -0.018011812 0.019567924
0.21773152 -1.2667546 -0.054482166 -0.35653755 -1.9410096 1.2948164 0.07233097 0.11677801
0.8639333 -0.6656793 -0.063570365 0.45720726 0.36520475 -1.1833187 0.051414326 -0.024668284
0.18446706 -0.16554311 2.5667777 1.0559721 -0.07101017 -0.5495146 -0.28136116 -1.2076882
0.17590536 0.02179795 0.14621551 -0.009987138 0.2848415 0.25292683 0.07954899 -0.5991651
-1.1283231 -0.31762415 0.08194082 0.49324578 -0.03485899 0.43084446 1.6309929 0.040652733
-0.5085778 -1.2739967 0.0047398703 0.17378558 -0.3978021 -0.20456223 -0.46291065 0.17330453
-0.027653974 0.06983065 2.5004852 -1.1741818 0.030304614 0.53542644 0.31188476 1.0082185
-0.19846939 -0.027541304 0.24774192 -0.02454683 -0.28455913 -0.20754506 -0.04910497 0.77169454
0.0033853813 0.15666983 0.109546915 0.9760183 0.14303598 -0.12755296 -0.36690903 2.7007124
-0.16426763 0.07664387 -0.0048458194 0.018384641 1.1016402 -0.95739007 0.25433064 -0.8338718
-1.0845839 1.0561937 0.10397793 0.2896632 0.035702508 1.5118911 -0.47175002 -0.33673015
1.2936356 0.37675363 0.029820815 0.74785703 0.111643694 -0.31663835 -0.42564383 -0.23185524
0.28359392 0.006855573 0.016171588 0.33043274 -0.4121948 0.4213697 0.5974801 1.1865566
1.0104928 -0.27522054 -0.077423126 0.101875685 -1.3730536 2.2267156 0.080664225 -0.4558227
0.1485651 0.8688948 -0.036589675 0.07507886 -0.62135994 -0.3215252 -0.22493982 0.043833427
-1.002677 -0.2048632 -0.00012367354 3.1925256 -0.35866696 -0.08493244 0.6188601 -0.30877355
-0.24959366 0.83968186 0.012336958 0.29983518 -1.7632973 1.8341485 -0.99783754 -0.13924448
-1.9229656 0.29502898 0.055535886 -0.6108464 -0.99685085 0.31225723 0.41766065 -0.22264037
0.043502674 -1.2724904 -0.046675682 -0.09024013 -0.878348 1.5456251 0.5962047 0.08854788
-0.8256315 1.0653179 0.059410065 0.65477437 0.79299396 0.6401181 -0.39927882 0.50544083
-0.30169392 0.111623496 -0.011507161 -0.7617449 -0.016450645 -0.1387429 -0.92161435 0.58474135
0.29350236 -0.12070889 0.0181877 0.17105849 -0.33863953 -0.032995068 0.24313965 2.1784024
0.1956824 0.111435354 -0.013997096 0.087091625 -0.3366397 -0.004900666 1.2621807 0.17998676
-0.042213287 2.1103294 0.023205578 0.010062845 -0.5656369 -0.41340056 -0.11538436 0.057210423
0.113935396 0.100150436 -0.00045189905 0.0017675962 -0.035482578 -0.40183643 -0.0985725 0.08792253
-0.16713133 -0.022972137 -0.007119534 0.12059233 -0.25836354 -0.105981424 -3.0755513 -0.033588864
00000000: 9289 09c0 6e6e 243e a34a 3cbb d3a2 aabe
00000010: 61dc acbe 2190 2abf 1123 05bd e58b 3c3e
00000020: c923 3abe dc74 803e 7d45 c03c a98a d9be
00000030: d41a e23e 7a65 903e 44a0 50bd ff0d f6bd
00000040: e238 483f f26a 0940 42d9 a4bd 6fe4 afbe
00000050: 0572 4abf c7f9 0a3f d240 9a3f 44b5 f73d
00000060: 22a8 0bbd a8c3 38be 752d 3d3c 102d 00bf
00000070: 5f2a a03f 9c4d 4ebe ca08 88bd 7bd8 fe3e
00000080: 708a 443d 3d13 b2bc 869a 17be a046 debc
00000090: 9ddc b93c 26ba 39bd fa8e 38bc 2211 913c
000000a0: 2288 ea3c 6d78 5bbd 49e3 8140 4e45 81bc
000000b0: c2d4 f9ba aff0 d0bc 828d 93bc e94c a03c
000000c0: 03f5 5e3e 0425 a2bf b128 5fbd 178c b6be
000000d0: 0173 f8bf 8bbc a53f 4222 943d 4f29 ef3d
000000e0: bc2a 5d3f f569 2abf 2e31 82bd 1217 ea3e
000000f0: 1efc ba3e fd76 97bf d497 523d 2415 cabc
00000100: efe4 3c3e 2284 29be 1646 2440 182a 873f
00000110: c86d 91bd fdac 0cbf 920e 90be 8795 9abf
00000120: 8920 343e 9d91 b23c 85b9 153e 18a1 23bc
00000130: bfd6 913e a07f 813e 95ea a23d e262 19bf
00000140: e46c 90bf a29f a2be 97d0 a73d b68a fc3e
00000150: 4dc8 0ebd a597 dc3e 60c4 d03f 7b83 263d
00000160: 2832 02bf 5312 a3bf ea50 9b3b d9f4 313e
00000170: b8ac cbbe c378 51be a002 edbe be76 313e
00000180: 968a e2bc 5f03 8f3d f307 2040 974b 96bf
00000190: 6241 f83c b511 093f 5caf 9f3e 4e0d 813f
000001a0: 8f3b 4bbe 4d9e e1bc 0fb0 7d3e 6f16 c9bc
000001b0: bcb1 91be b186 54be 4b22 49bd c68d 453f
000001c0: 46dd 5d3b 0e6e 203e 225a e03d 56dc 793f
000001d0: 0678 123e 3e9d 02be 80db bbbe 79d8 2c40
000001e0: c635 28be 76f7 9c3d aec9 9ebb 639b 963c
000001f0: 8c02 8d3f 8417 75bf a037 823e 9f78 55bf
00000200: a5d3 8abf 5b31 873f 62f2 d43d bc4e 943e
00000210: cb3c 123d a685 c13f 3889 f1be e567 acbe
00000220: da95 a53f dae5 c03e c84a f43c 8f73 3f3f
00000230: 73a5 e43d 6c1e a2be fded d9be 766b 6dbe
00000240: 3933 913e b7a4 e03b 477a 843c 7b2e a93e
00000250: 320b d3be c5bd d73e 75f4 183f 16e1 973f
00000260: d457 813f b5e9 8cbe 0490 9ebd 33a4 d03d
00000270: 38c0 afbf 8282 0e40 4933 a53d 9861 e9be
00000280: 7321 183e e46f 5e3f 0edf 15bd f2c2 993d
00000290: 7211 1fbf f39e a4be a056 66be ae8a 333d
000002a0: b857 80bf a9c7 51be 5dae 01b9 5752 4c40
000002b0: 32a3 b7be 0ff1 adbd 9e6d 1e3f 9117 9ebe
000002c0: 7b95 7fbe 64f5 563f f420 4a3c ff83 993e
000002d0: bab3 e1bf 61c5 ea3f 4872 7fbf 1b96 0ebe
000002e0: bd23 f6bf 0a0e 973e 9979 633d 6e60 1cbf
000002f0: 9e31 7fbf 2ee0 9f3e 9ed7 d53e d6fb 63be
00000300: dc2f 323d f7e0 a2bf 002f 3fbd d1cf b8bd
00000310: 6adb 60bf 0bd7 c53f dfa0 183f 9758 b53d
00000320: 965c 53bf 565c 883f f857 733d 4b9f 273f
00000330: a701 4b3f c8de 233f 466e ccbe 9264 013f
00000340: a077 9abe dc9a e43d 8888 3cbc b701 43bf
00000350: 81c3 86bc 9e12 0ebe ebee 6bbf 9cb1 153f
00000360: f145 963e 3936 f7bd 5ffe 943c f529 2f3e
00000370: 2962 adbe d625 07bd 9af9 783e f26a 0b40
00000380: f860 483e 3838 e43d 1354 65bc 185d b23d
00000390: 0a5c acbe c495 a0bb 238f a13f 734e 383e
000003a0: d7e7 2cbd a30f 0740 a019 be3c a2de 243c
000003b0: 94cd 10bf 3da9 d3be a34e ecbd 7a55 6a3d
000003c0: f656 e93d ac1b cd3d ddec ecb9 b0ae e73a
000003d0: 2e56 11bd 81bd cdbe 61e0 c9bd ba10 b43d
000003e0: 7a24 2bbe 1030 bcbc fb4a e9bb 1df9 f63d
000003f0: 3a48 84be ca0c d9bd d5d5 44c0 7a94 09bd

backbone1.1.block.2.1.weight f4 [16]
1.2101556 1.5269395 0.8464759 1.436429 0.6586636 1.4650532 0.6715163 0.910511
1.4745432 1.4784014 1.2817569 1.4586374 1.3242404 0.6324168 1.3881888 1.6507322
00000000: 61e6 9a3f c172 c33f a5b2 583f e8dc b73f
00000010: 2d9e 283f dd86 bb3f 7ee8 2b3f 4017 693f
00000020: d5bd bc3f 423c bd3f 9c10 a43f a1b4 ba3f
00000030: b680 a93f 11e6 213f 2cb0 b13f 314b d33f

backbone1.1.block.2.1.bias f4 [16]
0.0003098093 -0.0002476726 -0.0014452061 -0.004367856 -0.0010047299 0.00074699323 0.0016687613 0.0024979343
0.00030724943 -0.0031620625 0.001392844 0.0017598446 -0.00459437 -0.0019276507 -0.0022125603 -0.00046505197
00000000: e66d a239 0eda 81b9 126d bdba 3b20 8fbb
00000010: 24b1 83ba ded1 433a 56ba da3a 62b4 233b
00000020: 5216 a139 9b3a 4fbb 1790 b63a 96aa e63a
00000030: 5e8c 96bb 39a9 fcba 9a00 11bb 38d2 f3b9

backbone1.1.block.2.1.running_mean f4 [16]
-2.1160853 4.156316 3.3030322 1.6563814 0.9407371 -0.27890828 4.400121 0.31826878
5.1515923 2.2876933 -0.37955257 1.9443582 1.9068325 1.5356181 0.59739286 -1.4636375
00000000: f16d 07c0 8a00 8540 e164 5340 4e04 d43f
00000010: 26d4 703f 11cd 8ebe cbcd 8c40 20f4 a23e
00000020: d8d9 a440 9169 1240 b754 c2be bbe0 f83f
00000030: 1613 f43f 228f c43f bdee 183f 7958 bbbf

backbone1.1.block.2.1.running_var f4 [16]
0.2552304 1.0407863 0.48857182 0.97305644 0.25290185 0.6331673 0.27748325 0.43459374
1.2609284 0.87252975 1.5134212 1.3818777 0.5704507 0.21983325 0.5602292 0.36582518
00000000: 8fad 823e 7c38 853f 1626 fa3e 3a1a 793f
00000010: 5a7c 813e 4117 223f 4912 8e3e 1283 de3e
00000020: 1a66 a13f 1c5e 5f3f c9b7 c13f 5ee1 b03f
00000030: 0f09 123f f81b 613e 2e6b 0f3f 704d bb3e

backbone1.2.block.0.0.weight f4 [72, 16, 1, 1]
0.38866392 -0.37497583 0.0041450257 -0.3714405 0.044798348 -0.8793371 -0.0916701 0.05888886
0.42040026 -0.23310141 -0.1953249 0.14232925 0.46132115 0.23991911 1.2461145 -0.18663985
-0.038200606 -0.039712466 0.96776897 0.1970946 0.05261995 -0.3595005 0.03782971 0.020989228
0.16141674 -0.48272204 0.07406117 0.05520543 -0.03173293 -0.18550861 -0.23472871 -0.44537014
-0.23780446 -0.9081434 0.004889845 -0.4234567 -0.20815049 0.0121572 0.17879201 -0.7863979
-0.09057527 1.1110219 0.15376297 1.1468933 -1.0142599 0.40798813 0.4500865 -0.09553159
0.025386969 0.7225657 -0.027091138 -0.28912196 -0.04859203 0.053416688 0.04631716 0.045070793
0.32737434 0.026082728 0.5126298 0.14237016 -0.44179136 0.018927047 -0.11563246 0.024564615
-0.04455862 -0.005495892 -0.01003396 0.04648865 0.5776629 0.014802471 -0.5473649 -1.3120704
0.15657592 -0.51785624 -0.030808792 -0.04319498 0.0404994 -0.44806978 -0.06153357 -0.05567885
0.33629853 -0.045370385 0.07194257 0.10376097 0.53510106 -0.4496892 -0.5214804 0.046100646
-0.3196339 0.24774389 0.09216934 -0.96777236 -0.7449931 0.45748058 0.17676622 0.09707532
0.5366282 0.1119792 -0.025796575 0.34900567 -0.1873642 1.514172 0.17102185 -0.15364486
0.11681671 0.064831086 -0.062095113 -0.06386362 -0.4415952 -0.055456467 -1.1609071 0.563895
0.0020380558 0.16824216 0.7576166 0.37257314 0.09173526 -0.2516283 0.01208038 0.69692177
0.07893993 -0.81875736 0.04655779 -0.041635405 -0.08278717 0.04429625 -0.22321054 -0.4323555
-0.38968107 -0.17591295 0.043525714 -0.20987028 -0.0671181 0.18413839 0.12082863 -0.007232985
0.2730481 -0.23397309 -0.08242626 0.9251806 0.44944245 0.038656984 -0.28590205 -0.3317434
1.7000297 -0.7417726 -0.052565627 -0.41622955 -0.07975107 0.21674126 -0.07309682 0.061231013
1.095816 -0.32057926 -0.30866134 0.13680094 0.3707548 0.24642685 0.818996 0.22669823
-0.052677296 -0.07558195 0.050817702 -0.3309757 0.036963087 -0.83844966 -0.118105985 0.03242765
0.4122764 -0.13385484 -0.47209477 -0.110917136 0.7128324 -0.060951017 1.1403084 1.5388082
-0.25434774 -0.22548725 0.105006576 -0.5548246 0.28849843 0.3428836 -0.36584422 0.5916862
0.14685774 0.24453221 0.39745584 -0.5535617 -0.10263456 -0.477023 0.3803514 -0.43866074
-0.18235512 0.102185376 1.0997142 0.148392 -1.1560601 0.2559417 -1.4685053 -0.13320027
-0.15681197 0.015467278 0.008811385 0.04461869 -0.1428752 -0.050085098 -0.34596327 0.055109367
-0.2538704 0.12151171 -0.0014515087 0.878473 -0.12302857 0.07449858 0.084136434 0.9850642
0.2569949 -2.0449655 -0.15924245 -0.15757532 -0.61009175 -0.04865665 0.26458737 -0.20250766
0.02501705 0.18270667 -0.03576926 -0.63628644 0.48236784 0.13171121 -0.5670996 0.4328578
0.121919475 0.43777525 0.48919436 -0.6363016 0.56360495 -0.6875841 -0.16698691 -0.53880084
-5.1101914e-09 -8.870874e-11 -3.08881e-09 -1.4041812e-09 3.2515568e-10 -3.3445453e-09 4.052166e-09 -3.5196013e-09
1.8692296e-10 1.0672648e-09 -5.332645e-09 -2.0123967e-09 2.2722064e-09 -1.4493873e-09 4.7956554e-09 2.0574416e-09
00000000: f5fe c63e d5fc bfbe ffd2 873b 732d bebe
00000010: 797e 373d 3c1c 61bf 89bd bbbd 7235 713d
00000020: b43e d73e 23b2 6ebe 4003 48be c2be 113e
00000030: 4932 ec3e 5bad 753e ae80 9f3f 841e 3fbe
00000040: 3d78 1cbd 8aa9 22bd b5bf 773f 2bd3 493e
00000050: 0488 573d 7310 b8be 53f3 1a3d 9af1 ab3c
00000060: 6e4a 253e 5827 f7be 62ad 973d 171f 623d
00000070: 64fa 01bd f8f5 3dbe b95c 70be 8e07 e4be
00000080: 0383 73be 167c 68bf fe3a a03b 51cf d8be
00000090: 6725 55be fe2e 473c 4115 373e 5f51 49bf
000000a0: 877f b9bd f735 8e3f 0a74 1d3e 66cd 923f
000000b0: 45d3 81bf d2e3 d03e bd71 e63e 11a6 c3bd
000000c0: 55f8 cf3c 11fa 383f 3cee ddbc cb07 94be
000000d0: 7008 47bd 75cb 5a3d 10b7 3d3d 279c 383d
000000e0: 9c9d a73e 72ab d53c b53b 033f 7cc9 113e
000000f0: 7a32 e2be e50c 9b3c b6d0 ecbd bb3b c93c
00000100: 1983 36bd e216 b4bb 7b65 24bc e26a 3e3d
00000110: b7e1 133f 1086 723c 1b20 0cbf ecf1 a7bf
00000120: 7055 203e 3a92 04bf b862 fcbc 38ed 30bd
00000130: b3e2 253d 6769 e5be a00a 7cbd 810f 64bd
00000140: 522f ac3e 4cd6 39bd a056 933d a280 d43d
00000150: 62fc 083f aa3d e6be bd7f 05bf 08d4 3c3d
00000160: 0ea7 a3be 93b0 7d3e 47c3 bc3d eebf 77bf
00000170: deb7 3ebf e53a ea3e 3402 353e 6dcf c63d
00000180: 7760 093f 5a55 e53d 5753 d3bc dfb0 b23e
00000190: 67dc 3fbe 63d0 c13f 5a20 2f3e 1455 1dbe
000001a0: 993d ef3d 29c6 843d 7257 7ebd eeca 82bd
000001b0: c418 e2be 5226 63bd 9b98 94bf 6c5b 103f
000001c0: e790 053b ac47 2c3e 29f3 413f e8c1 be3e
000001d0: b2df bb3d 6dd5 80be c9ec 453c 7769 323f
000001e0: 42ab a13d 159a 51bf 62b3 3e3d e389 2abd
000001f0: 528c a9bd fc6f 353d 4e91 64be b35d ddbe
00000200: 4784 c7be 8622 34be 0548 323d 3ce8 56be
00000210: 3775 89bd c68e 3c3e 0075 f73d ad02 edbb
00000220: f6cc 8b3e a496 6fbe 19cf a8bd a3d8 6c3f
00000230: 521d e63e c956 1e3d c161 92be 45da a9be
00000240: 939a d93f cfe4 3dbf 0e4f 57bd 0a1c d5be
00000250: 8754 a3bd 6cf1 5d3e c9b3 95bd 5fcd 7a3d
00000260: b343 8c3f f722 a4be dc08 9ebe 8c15 0c3e
00000270: 93d3 bd3e 5257 7c3e b9a9 513f 9523 683e
00000280: 26c4 57bd b6ca 9abd 3926 503d a675 a9be
00000290: 9b66 173d a3a4 56bf 8de1 f1bd dbd2 043d
000002a0: e415 d33e 3e11 09be 68b6 f1be 8628 e3bd
000002b0: 2f7c 363f c6a7 79bd a0f5 913f abf7 c43f
000002c0: de39 82be 21e6 66be b00d d73d fc08 0ebf
000002d0: 11b6 933e 708e af3e ef4f bbbe bf78 173f
000002e0: e061 163e a766 7a3e 557f cb3e 38b6 0dbf
000002f0: 1132 d2bd 5c3c f4be 6bbd c23e 2498 e0be
00000300: 4dbb 3abe 9146 d13d 6fc3 8c3f 13f4 173e
00000310: c7f9 93bf ca0a 833e fbf7 bbbf a765 08be
00000320: 5193 20be 776a 7d3c a15d 103c 16c2 363d
00000330: e04d 12be 0826 4dbd 1922 b1be 5cba 613d
00000340: 4dfb 81be 22db f83d 8d40 beba 9be3 603f
00000350: 67f6 fbbd b692 983d b94f ac3d 2b2d 7c3f
00000360: d694 833e b7e0 02c0 7410 23be 6d5b 21be
00000370: f92e 1cbf 324c 47bd ff77 873e 2b5e 4fbe
00000380: 8ef0 cc3c 7517 3b3e ca82 12bd abe3 22bf
00000390: ebf8 f63e 4edf 063e 702d 11bf 8a9f dd3e
000003a0: ebb0 f93d 1424 e03e af77 fa3e a9e4 22bf
000003b0: 6a48 103f 8305 30bf 9efe 2abe daee 09bf
000003c0: b895 afb1 9512 c3ae ec42 54b1 3cfd c0b0
000003d0: 98c1 b22f ddd5 65b1 3b3b 8b31 7bdd 71b1
000003e0: 2386 4d2f 0baf 9230 713a b7b1 754a 0ab1
000003f0: 1425 1c31 c833 c7b0 08c7 a431 e562 0d31

backbone1.2.block.0.1.weight f4 [72]
0.9698193 0.28992736 1.3432252 0.29827732 0.28408617 0.18371871 1.055207 0.24386534
0.20145106 1.1154263 1.2761837 0.339857 0.6910117 1.3615818 0.255757 5.969756e-10
0.41329947 0.23550683 0.59157133 0.11106039 -8.3103036e-10 1.7066963 0.6324967 0.3637684
0.797387 0.17817879 1.1459796 1.0838157 1.2193892 0.09720565 1.0662259 1.406313
0.27997118 0.43088922 1.4631819 6.8364088e-09 6.8844734e-09 0.73798275 8.51304e-09 0.16352785
0.4342706 1.4723018 0.17312759 0.5357671 0.373874 0.23422769 0.28373504 0.30709565
0.21610036 1.4065925 0.7526208 1.6772745 1.5474 0.25291452 0.1371261 1.1471887
0.14056142 1.0788642 0.17992273 0.4170021 1.6195117 0.15039891 0.6619268 0.5331557
0.17389457 1.1161515 0.20164764 0.25538 0.219988 0.12938157 0.18297864 1.4594972
00000000: 1446 783f 5c71 943e ceee ab3f ceb7 983e
00000010: be73 913e c220 3c3e 0611 873f d6b7 793e
00000020: 3049 4e3e 4ac6 8e3f fd59 a33f bd01 ae3e
00000030: 25e6 303f 5048 ae3f 95f2 823e 6c18 2430
00000040: fd9b d33e b428 713e 3871 173f a173 e33d
00000050: 906e 64b0 0675 da3f 4eeb 213f da3f ba3e
00000060: 8e21 4c3f 8074 363e 76af 923f 79ba 8a3f
00000070: f214 9c3f c113 c73d 177a 883f 1002 b43f
00000080: 6258 8f3e 839d dc3e 8b49 bb3f b0e5 ea31
00000090: 788c ec31 70ec 3c3f bf40 1232 d873 273e
000000a0: b758 de3e 6374 bc3f 5c48 313e 0828 093f
000000b0: 6a6c bf3e 62d9 6f3e b845 913e a43b 9d3e
000000c0: 6a49 5d3e 390b b43f c2ab 403f eeb0 d63f
000000d0: 3411 c63f 037e 813e c96a 0c3e 14d7 923f
000000e0: 55ef 0f3e 3918 8a3f aa3d 383e 4d81 d53e
000000f0: 294c cf3f 2c02 1a3e 0974 293f e47c 083f
00000100: 6b11 323e 0dde 8e3f b87c 4e3e 2bc1 823e
00000110: 8944 613e 9a7c 043e c15e 3b3e ced0 ba3f

backbone1.2.block.0.1.bias f4 [72]
0.15436073 0.81554204 -0.1781515 1.0561678 0.6106858 0.608874 -0.288788 0.6516838
0.6378416 -0.072650656 -0.14068456 0.32715213 0.12082768 -0.1519814 0.52569956 -1.1974472e-08
0.29250395 0.96190435 0.29228255 0.6246334 -2.190266e-08 -0.23372987 0.41552842 0.85196966
0.26537904 0.8525564 -0.2978633 -0.18755715 -0.37658274 0.66111267 -0.35499147 -0.11113624
0.6698705 0.2517704 0.28888756 -2.4747744e-09 -1.7034436e-09 0.2842406 -7.510917e-10 0.7423023
0.524461 -0.23508787 1.0063746 0.45912063 0.71929014 0.75597095 0.8237761 0.78305715
0.55393577 0.24009284 -0.014873722 0.2998039 -0.38063803 0.68842804 0.64402777 -0.1808599
0.7372102 -0.35065556 0.6381896 0.5723828 -0.40110216 0.8270785 0.07413243 0.24718852
0.7714617 -0.35109323 0.67025316 0.45910713 0.63760847 0.8008101 0.5773969 -0.21961214
00000000: bd10 1e3e 5dc7 503f 596d 36be 8230 873f
00000010: e855 1c3f 2bdf 1b3f 05dc 93be c0d4 263f
00000020: 9649 233f dec9 94bd 9d0f 10be 7c80 a73e
00000030: 8174 f73d 03a1 1bbe 3f94 063f 49b8 4db2
00000040: 14c3 953e 5d3f 763f 0fa6 953e f9e7 1f3f
00000050: 7524 bcb2 e256 6fbe 24c0 d43e af1a 5a3f
00000060: c3df 873e 2341 5a3f 8a81 98be fb0e 40be
00000070: 74cf c0be ae3e 293f 71c1 b5be 669b e3bd
00000080: a27c 2b3f 0de8 803e 12e9 933e b110 2ab1
00000090: 981e eab0 fc87 913e 6175 4eb0 8607 3e3f
000000a0: 1343 063f e0ba 70be e2d0 803f dc11 eb3e
000000b0: 6623 383f 5087 413f fee2 523f 6f76 483f
000000c0: bcce 0d3f e6da 753e e9b0 73bc e67f 993e
000000d0: fde2 c2be d23c 303f 01df 243f 5633 39be
000000e0: cfb9 3c3f 2089 b3be 6560 233f ae87 123f
000000f0: 435d cdbe 6bbb 533f bed2 973d fd1e 7d3e
00000100: 847e 453f 7ec2 b3be b695 2b3f 1710 eb3e
00000110: 4f3a 233f e401 4d3f 49d0 133f 01e2 60be

backbone1.2.block.0.1.running_mean f4 [72]
-0.0013303343 -0.000102794285 0.00065035984 0.001063292 -0.0012317897 -0.0005556607 0.0022792083 0.00046708915
0.0001944914 0.00069632794 -0.0023984865 0.0001930962 -0.0010132213 0.0017188077 -0.0004722645 -9.547267e-12
-0.0019399914 -0.0009738673 -0.00082851626 0.0007910485 -2.6294118e-11 -0.002182728 0.0015062685 0.0011037152
0.0003554874 -3.0367039e-05 6.1104483e-06 0.0016939278 0.0010820997 -0.0002957316 0.0014685509 0.0025819072
-0.0012601517 -0.0015535357 0.0023592277 -3.6798633e-12 -1.4965068e-12 0.0016672397 -3.3014095e-12 6.4128886e-05
-0.00070615864 0.0010339519 0.0005755903 -2.7655686e-05 0.0006753055 -0.0005023875 0.0013050294 -0.0015615646
6.323577e-05 -0.0029474508 -0.001390706 -0.00056957745 -0.0006387586 -0.00031238544 -0.0009006254 -0.00054300466
-0.0007177077 0.0026460686 -0.0004968675 -3.6079437e-05 -0.0003543396 0.0007115925 -0.0001422029 0.00033378776
-0.0009003582 0.0021110764 0.0008679869 -0.0007765494 0.0007750651 -0.0007104579 9.7681495e-06 -0.0007661417
00000000: 9d5e aeba 4393 d7b8 e97c 2a3a 295e 8b3a
00000010: 0174 a1ba c2a9 11ba c55e 153b a5e3 f439
00000020: 63f0 4b39 c789 363a ed2f 1dbb de79 4a39
00000030: 11ce 84ba 9e49 e13a 459a f7b9 11f5 27ad
00000040: 4f47 feba 214b 7fba c930 59ba 5e5e 4f3a
00000050: 1749 e7ad 190c 0fbb fc6d c53a 89aa 903a
00000060: b660 ba39 b8bc feb7 5a08 cd36 c906 de3a
00000070: 3ed5 8d3a 6c0c 9bb9 647c c03a 3735 293b
00000080: ad2b a5ba 02a0 cbba 469d 1a3b 4379 81ac
00000090: 579d d2ab 4887 da3a e850 68ac ef7c 8638
000000a0: 811d 39ba ab85 873a 36e3 163a 22fe e7b7
000000b0: fc06 313a a8b2 03ba 850d ab3a 6aad ccba
000000c0: 729d 8438 052a 41bb 5a48 b6ba b24f 15ba
000000d0: 5d72 27ba aac7 a3b9 f317 6cba 6d58 0eba
000000e0: 8c24 3cba aa69 2d3b 3740 02ba 0054 17b8
000000f0: a8c6 b9b9 2a8a 3a3a 4d1c 15b9 3c00 af39
00000100: 0406 6cba fc59 0a3b 9d89 633a 5991 4bba
00000110: bd2d 4b3a 063e 3aba e2e1 2337 e6d6 48ba

backbone1.2.block.0.1.running_var f4 [72]
9.098652 2.8704302 13.719928 3.8484607 1.6560231 2.705963 12.477614 5.4195642
2.1672323 10.3784275 14.685059 4.471274 3.3858764 15.3634615 5.700088 3.803916e-16
19.604485 12.594241 4.03227 3.8477027 1.7846707e-15 36.050457 3.304192 2.543699
3.571388 2.4500723 11.709509 11.882963 12.777476 2.6139219 10.278945 22.779974
2.4582758 2.5792146 14.201818 1.119851e-16 9.865793e-17 4.746082 9.128158e-17 3.1548755
3.6332061 16.149422 2.277779 3.2947462 6.772481 2.4142559 8.946147 5.0318613
3.8670075 8.0809765 4.197768 40.58771 23.06797 3.0379224 3.3170633 13.559025
2.9604104 13.602917 2.3310595 4.614817 26.544947 8.01695 2.3369148 2.8328104
3.3131332 17.26929 1.9182367 1.5253452 4.676375 4.637869 1.914959 15.808831
00000000: 1494 1141 21b5 3740 d384 5b41 2e4d 7640
00000010: 91f8 d33f 7f2e 2d40 4fa4 4741 126d ad40
00000020: efb3 0a40 0a0e 2641 00f6 6a41 ad14 8f40
00000030: 33b2 5840 bdd0 7541 1f67 b640 e447 db25
00000040: fcd5 9c41 0382 4941 5b08 8140 c340 7640
00000050: 5d99 0027 ab33 1042 e277 5340 f7cb 2240
00000060: 9f91 6440 fccd 1c40 265a 3b41 9e20 3e41
00000070: 8b70 4c41 7f4a 2740 8f76 2441 633d b641
00000080: 6454 1d40 da11 2540 a63a 6341 2b1c 0125
00000090: 5d7d e324 e7df 9740 227b d224 7be9 4940
000000a0: 7386 6840 0432 8141 22c7 1140 1fdd 5240
000000b0: 2ab8 d840 2b83 1a40 6b23 0f41 0205 a140
000000c0: 0d7d 7740 ae4b 0141 1e54 8640 d159 2242
000000d0: 348b b841 526d 4240 c44a 5440 c4f1 5841
000000e0: 5d77 3d40 8ca5 5941 1430 1540 95ac 9340
000000f0: 0d5c d441 6d45 0041 0390 1540 c44c 3540
00000100: 600a 5440 8227 8a41 c888 f53f 833e c33f
00000110: dda4 9540 6c69 9440 601d f53f f9f0 7c41

backbone1.2.block.1.0.weight f4 [72, 1, 3, 3]
-0.020426909 -0.08477842 -0.038939025 -0.23748234 -0.6205019 -0.2730572 -0.20723158 -0.4936137
-0.22017577 0.20381592 0.097297005 -0.55584407 0.22797969 1.0280586 0.47156888 -1.0533231
-0.47099864 0.065150194 -0.013395094 -0.21941973 -0.15008034 -0.27555078 -0.56186485 -0.53665984
-0.3368912 -0.59492886 -0.38361162 -0.4551872 -0.61095303 -0.4362746 0.16524687 0.015857149
0.117322 -0.029977394 -0.033565287 -0.010139434 -0.09719022 -0.58268833 0.674657 0.35695496
1.419555 -1.8643233 -0.2599557 -0.9109299 1.2276877 0.10158697 0.016699424 -0.13126725
0.18199645 0.13803321 -1.0379882 0.1796539 0.1493029 -0.6020219 -0.030607997 -0.14544702
-0.08873561 -0.19135602 -0.5390817 -0.35133442 -0.1840555 -0.4086168 -0.27519763 -0.211498
0.16516554 0.27420458 0.066691585 -0.9174119 0.80143476 0.33925945 -0.89250255 0.3913499
0.12242334 -0.03292816 -0.0799989 0.62528044 -0.7191067 0.0064330976 0.61562246 -0.6640456
0.11551174 -0.07042016 -0.16892868 -0.09227217 -0.27359316 -0.5353213 -0.40952775 -0.20789121
-0.42452592 -0.30115205 -0.085409336 -0.16188106 -0.06884116 -0.30972597 -0.49663574 -0.30720052
-0.26059213 -0.38483503 -0.19847304 -0.04802061 0.27173963 -0.02896516 0.33099967 0.5977755
-1.2249892 0.18207233 0.32137766 -1.0346497 0.013276217 0.059411295 0.028006727 0.14777182
-0.28662503 -0.43853205 0.15399402 -0.36072358 -0.50053525 0.16876484 0.32644615 0.1360434
0.30151492 0.5321285 0.4908587 0.20488535 0.64315975 0.55731374 0.09531269 0.13632
0.19721192 0.12336481 -2.1926744 0.14663728 0.2123318 -0.012661964 0.3137156 -1.1584788e-09
-9.667755e-10 -1.3116431e-09 -7.075096e-10 -1.4972801e-09 -1.2217874e-09 -1.4331727e-09 -1.0538211e-09 -1.5572731e-09
-0.024373965 0.08429742 0.035711724 0.19433701 0.83324677 0.62304837 0.13772455 0.7203965
0.57519984 0.07516563 -0.07270678 -0.052265044 -0.14336146 -0.87588835 -0.888586 -0.020212606
-0.5198262 -0.5371206 -0.030634858 -0.023121163 -0.00016098769 -0.020623762 0.4017214 0.5099882
-0.033978023 0.43071344 0.52864444 0.18705127 0.5988949 -0.74164814 -0.6962531 0.406733
1.8025218 0.43808237 -1.8283417 -0.1776078 4.803935e-09 7.966654e-09 7.7465545e-09 2.862558e-09
1.24105055e-08 5.8169647e-09 3.2144243e-09 -6.6274614e-10 5.1852873e-09 0.093622476 0.30125716 0.19454086
0.32020345 0.8768489 0.5293112 0.21154566 0.603717 0.389349 0.08718961 0.1839619
0.11170389 0.27456233 0.5865436 0.41929066 0.2085245 0.5057646 0.38991624 0.055961005
0.51711756 0.6087783 -0.22528993 -2.0622747 -1.6105331 0.19694772 1.4092705 1.1410834
-0.009492456 -0.015701093 -0.042488996 -0.088715255 -0.22625238 -0.2682262 -0.14332888 -0.3102224
-0.3285329 -0.008841126 -0.30371356 0.31523514 -0.0796696 1.4092264 -1.371532 0.05901514
-1.1131068 1.057124 -0.044831477 -0.11956451 -0.055374306 -0.23852731 -0.48460183 -0.3029605
-0.14256439 -0.38703886 -0.25889257 -0.18906239 -0.376401 -0.2375353 -0.26382488 -0.58076733
-0.34124327 0.054357164 0.04771767 0.08893994 -0.034839846 -0.17365327 -0.17965215 -0.11533627
00000000: 5556 a7bc 4fa0 adbd 877e 1fbd 922e 73be
00000010: 36d9 1ebf 27ce 8bbe 8434 54be efba fcbe
00000020: c275 61be 1fb5 503e a743 c73d cc4b 0ebf
00000030: 8273 693e 6d97 833f 7a71 f13e 4bd3 86bf
00000040: bc26 f1be 776d 853d 1977 5bbc 91af 60be
00000050: a9ae 19be fe14 8dbe 60d6 0fbf 8a62 09bf
00000060: 017d acbe 424d 18bf be68 c4be 4c0e e9be
00000070: 6b67 1cbf 625f dfbe 7a36 293e dae6 813c
00000080: 8446 f03d 2793 f5bc c17b 09bd de1f 26bc
00000090: ab0b c7bd 102b 15bf 52b6 2c3f cdc2 b63e
000000a0: fab3 b53f 25a2 eebf ea18 85be b432 69bf
000000b0: df24 9d3f d40c d03d 3bcd 883c ec6a 06be
000000c0: 475d 3a3e 9458 0d3e ccdc 84bf 31f7 373e
000000d0: dce2 183e 1b1e 1abf 9fbd fabc 10f0 14be
000000e0: 04bb b5bd d5f2 43be 4201 0abf 1be2 b3be
000000f0: 0c79 3cbe 3936 d1be b4e6 8cbe ef92 58be
00000100: 2821 293e 8b64 8c3e 9995 883d 82db 6abf
00000110: d42a 4d3f 6ab3 ad3e 0c7b 64bf 045f c83e
00000120: 17b9 fa3d aedf 06bd 77d6 a3bd 6112 203f
00000130: 6017 38bf bccc d23b 6f99 1d3f e4fe 29bf
00000140: 6b91 ec3d 7238 90bd a4fb 2cbe 31f9 bcbd
00000150: 6714 8cbe d10a 09bf 9fad d1be 6fe1 54be
00000160: 765b d9be 9a30 9abe 17eb aebd 26c4 25be
00000170: 98fc 8cbd 6794 9ebe 0a47 febe 6349 9dbe
00000180: 556c 85be 1909 c5be 843c 4bbe 42b1 44bd
00000190: 7521 8b3e 5848 edbc ca78 a93e d107 193f
000001a0: 72cc 9cbf 2b71 3a3e 9d8b a43e 676f 84bf
000001b0: 7d84 593c 4259 733d 5d6e e53c 7f51 173e
000001c0: 84c0 92be 4687 e0be 9cb0 1d3e c3b0 b8be
000001d0: 1423 00bf b1d0 2c3e f323 a73e f64e 0b3e
000001e0: 2a60 9a3e 9339 083f d551 fb3e 77cd 513e
000001f0: 1ea6 243f 1dac 0e3f 4d33 c33d 7897 0b3e
00000200: ecf1 493e b1a6 fc3d c754 0cc0 1528 163e
00000210: 826d 593e 2074 4fbc 559f a03e 5938 9fb0
00000220: 64df 84b0 5745 b4b0 907a 42b0 dcc8 cdb0
00000230: d3eb a7b0 48f9 c4b0 09d6 90b0 ad07 d6b0
00000240: e9ab c7bc 20a4 ac3d 7546 123d 4800 473e
00000250: a94f 553f 1980 1f3f aa07 0d3e e86b 383f
00000260: 4c40 133f 70f0 993d 4be7 94bd df13 56bd
00000270: 59cd 12be 383a 60bf 5f7a 63bf e894 a5bc
00000280: 5413 05bf bc80 09bf f4f5 fabc 9868 bdbc
00000290: cece 28b9 2af3 a8bc 6dae cd3e 968e 023f
000002a0: 8a2c 0bbd 7986 dc3e 3e55 073f 5e8a 3f3e
000002b0: 2d51 193f a7dc 3dbf a53d 32bf 4f3f d03e
000002c0: 09b9 e63f 554c e03e 1a07 eabf d2de 35be
000002d0: dc0f a531 b7dd 0832 b515 0532 a7b6 4431
000002e0: fb35 5532 90de c731 c0e4 5c31 9d2c 36b0
000002f0: 452a b231 24bd bf3d 613e 9a3e b835 473e
00000300: b5f1 a33e 2b79 603f f080 073f 6d9f 583e
00000310: 338d 1a3f c158 c73e 7790 b23d 8260 3c3e
00000320: 02c5 e43d 6f93 8c3e b927 163f 44ad d63e
00000330: 7287 553e ca79 013f 1aa3 c73e 5e37 653d
00000340: d161 043f e5d8 1b3f 67b2 66be 4ffc 03c0
00000350: f325 cebf aaac 493e fa62 b43f 050f 923f
00000360: 3f86 1bbc 949f 80bc f108 2ebd 58b0 b5bd
00000370: b4ae 67be f254 89be cec4 12be 78d5 9ebe
00000380: 7735 a8be 5fda 10bc 5880 9bbe 8066 a13e
00000390: d129 a3bd 8861 b43f 5c8e afbf dcb9 713d
000003a0: 497a 8ebf d74f 873f 36a1 37bd 3dde f4bd
000003b0: 2bd0 62bd 8140 74be bb1d f8be a31d 9bbe
000003c0: 66fc 11be f529 c6be 918d 84be 9299 41be
000003d0: a2b7 c0be 743c 73be 0e14 87be 2bad 14bf
000003e0: 70b7 aebe 9ea5 5e3d 9b73 433d 2526 b63d
000003f0: 3ab4 0ebd 2ad2 31be bcf6 37be 6c35 ecbd

backbone1.2.block.1.1.weight f4 [72]
1.2150033 0.8722919 0.4993299 0.77511716 0.98548734 1.0788904 0.4773356 0.90114266
1.0166394 1.0923247 2.0958688 1.0209868 0.36273962 0.66535527 1.3429387 9.648585e-09
0.93573874 0.95444757 0.35959557 0.68873006 1.7018204e-08 0.9436257 0.37293538 1.1177284
0.6744717 1.3395959 1.096303 1.1247623 1.1464831 1.1475135 1.0038898 0.6234215
1.1998953 0.56716186 0.8984079 4.0797623e-09 3.9878825e-09 0.42725313 3.1887841e-09 1.064095
0.81290275 1.1828326 1.3506938 0.8035581 1.1351193 1.1977463 1.3860775 0.53041434
1.0194021 1.8000592 0.3337977 1.1182655 0.46284398 0.9743852 0.6734996 0.83118474
1.1354203 0.60935205 0.99675333 0.85669 0.69039917 0.9543833 0.37001684 0.37286586
0.9806478 0.52969 0.875662 0.9943006 1.2115629 1.1029695 0.8646316 1.2014756
00000000: 3a85 9b3f 864e 5f3f 2ba8 ff3e 146e 463f
00000010: e648 7c3f 1519 8a3f 5565 f43e 49b1 663f
00000020: 3d21 823f 4cd1 8b3f b722 0640 b2af 823f
00000030: 02b9 b93e b954 2a3f 6ae5 ab3f edc2 2532
00000040: 938c 6f3f ad56 743f e91c b83e 9d50 303f
00000050: 6d2f 9232 7491 713f 63f1 be3e b911 8f3f
00000060: 2daa 2c3f e177 ab3f a853 8c3f 36f8 8f3f
00000070: f5bf 923f b9e1 923f 767f 803f 8d98 1f3f
00000080: 2b96 993f 8531 113f 0ffe 653f f82d 8c31
00000090: c905 8931 ecc0 da3e af21 5b31 4434 883f
000000a0: 651a 503f 0f67 973f 89e3 ac3f fcb5 4d3f
000000b0: 974b 913f c04f 993f fd6a b13f 3cc9 073f
000000c0: c57b 823f 5768 e63f 88e7 aa3e 5323 8f3f
000000d0: e3f9 ec3e 4f71 793f 786a 2c3f 86c8 543f
000000e0: 7455 913f 7ffe 1b3f 3a2b 7f3f 0950 5b3f
000000f0: 00be 303f 7752 743f d972 bd3e 46e8 be3e
00000100: bc0b 7b3f c499 073f 632b 603f 7c8a 7e3f
00000110: 7e14 9b3f 1b2e 8d3f 7f58 5d3f f4c9 993f
